{"format": "torch", "nodes": [{"name": "encoder0.0", "id": 139842471142512, "class_name": "Encoder(\n  (encoder): Sequential(\n    (conv): Conv2d(3, 16, kernel_size=(3, 3), stride=(1, 1), padding=(1, 1))\n    (batch_norm): BatchNorm2d(16, eps=1e-05, momentum=0.1, affine=True, track_running_stats=True)\n    (actv): ReLU()\n  )\n)", "parameters": [["encoder.conv.weight", [16, 3, 3, 3]], ["encoder.conv.bias", [16]], ["encoder.batch_norm.weight", [16]], ["encoder.batch_norm.bias", [16]]], "output_shape": [[8, 16, 512, 512]], "num_parameters": [432, 16, 16, 16]}, {"name": "encoder0.1", "id": 139842471142960, "class_name": "Encoder(\n  (encoder): Sequential(\n    (conv): Conv2d(16, 16, kernel_size=(3, 3), stride=(1, 1), padding=(1, 1))\n    (batch_norm): BatchNorm2d(16, eps=1e-05, momentum=0.1, affine=True, track_running_stats=True)\n    (actv): ReLU()\n  )\n)", "parameters": [["encoder.conv.weight", [16, 16, 3, 3]], ["encoder.conv.bias", [16]], ["encoder.batch_norm.weight", [16]], ["encoder.batch_norm.bias", [16]]], "output_shape": [[8, 16, 512, 512]], "num_parameters": [2304, 16, 16, 16]}, {"name": "encoder1.0", "id": 139842471143296, "class_name": "Encoder(\n  (encoder): Sequential(\n    (conv): Conv2d(16, 16, kernel_size=(3, 3), stride=(2, 2), padding=(1, 1))\n    (batch_norm): BatchNorm2d(16, eps=1e-05, momentum=0.1, affine=True, track_running_stats=True)\n    (actv): ReLU()\n  )\n)", "parameters": [["encoder.conv.weight", [16, 16, 3, 3]], ["encoder.conv.bias", [16]], ["encoder.batch_norm.weight", [16]], ["encoder.batch_norm.bias", [16]]], "output_shape": [[8, 16, 256, 256]], "num_parameters": [2304, 16, 16, 16]}, {"name": "encoder1.1", "id": 139842471143688, "class_name": "Encoder(\n  (encoder): Sequential(\n    (conv): Conv2d(16, 16, kernel_size=(3, 3), stride=(1, 1), padding=(1, 1))\n    (batch_norm): BatchNorm2d(16, eps=1e-05, momentum=0.1, affine=True, track_running_stats=True)\n    (actv): ReLU()\n  )\n)", "parameters": [["encoder.conv.weight", [16, 16, 3, 3]], ["encoder.conv.bias", [16]], ["encoder.batch_norm.weight", [16]], ["encoder.batch_norm.bias", [16]]], "output_shape": [[8, 16, 256, 256]], "num_parameters": [2304, 16, 16, 16]}, {"name": "encoder2.0", "id": 139842471144024, "class_name": "Encoder(\n  (encoder): Sequential(\n    (conv): Conv2d(16, 32, kernel_size=(3, 3), stride=(2, 2), padding=(1, 1))\n    (batch_norm): BatchNorm2d(32, eps=1e-05, momentum=0.1, affine=True, track_running_stats=True)\n    (actv): ReLU()\n  )\n)", "parameters": [["encoder.conv.weight", [32, 16, 3, 3]], ["encoder.conv.bias", [32]], ["encoder.batch_norm.weight", [32]], ["encoder.batch_norm.bias", [32]]], "output_shape": [[8, 32, 128, 128]], "num_parameters": [4608, 32, 32, 32]}, {"name": "encoder2.1", "id": 139842471144416, "class_name": "Encoder(\n  (encoder): Sequential(\n    (conv): Conv2d(32, 32, kernel_size=(3, 3), stride=(1, 1), padding=(1, 1))\n    (batch_norm): BatchNorm2d(32, eps=1e-05, momentum=0.1, affine=True, track_running_stats=True)\n    (actv): ReLU()\n  )\n)", "parameters": [["encoder.conv.weight", [32, 32, 3, 3]], ["encoder.conv.bias", [32]], ["encoder.batch_norm.weight", [32]], ["encoder.batch_norm.bias", [32]]], "output_shape": [[8, 32, 128, 128]], "num_parameters": [9216, 32, 32, 32]}, {"name": "encoder3.0", "id": 139842471144752, "class_name": "Encoder(\n  (encoder): Sequential(\n    (conv): Conv2d(32, 64, kernel_size=(3, 3), stride=(2, 2), padding=(1, 1))\n    (batch_norm): BatchNorm2d(64, eps=1e-05, momentum=0.1, affine=True, track_running_stats=True)\n    (actv): ReLU()\n  )\n)", "parameters": [["encoder.conv.weight", [64, 32, 3, 3]], ["encoder.conv.bias", [64]], ["encoder.batch_norm.weight", [64]], ["encoder.batch_norm.bias", [64]]], "output_shape": [[8, 64, 64, 64]], "num_parameters": [18432, 64, 64, 64]}, {"name": "encoder3.1", "id": 139842471145144, "class_name": "Encoder(\n  (encoder): Sequential(\n    (conv): Conv2d(64, 64, kernel_size=(3, 3), stride=(1, 1), padding=(1, 1))\n    (batch_norm): BatchNorm2d(64, eps=1e-05, momentum=0.1, affine=True, track_running_stats=True)\n    (actv): ReLU()\n  )\n)", "parameters": [["encoder.conv.weight", [64, 64, 3, 3]], ["encoder.conv.bias", [64]], ["encoder.batch_norm.weight", [64]], ["encoder.batch_norm.bias", [64]]], "output_shape": [[8, 64, 64, 64]], "num_parameters": [36864, 64, 64, 64]}, {"name": "encoder4.0", "id": 139842343866440, "class_name": "Encoder(\n  (encoder): Sequential(\n    (conv): Conv2d(64, 128, kernel_size=(3, 3), stride=(2, 2), padding=(1, 1))\n    (batch_norm): BatchNorm2d(128, eps=1e-05, momentum=0.1, affine=True, track_running_stats=True)\n    (actv): ReLU()\n  )\n)", "parameters": [["encoder.conv.weight", [128, 64, 3, 3]], ["encoder.conv.bias", [128]], ["encoder.batch_norm.weight", [128]], ["encoder.batch_norm.bias", [128]]], "output_shape": [[8, 128, 32, 32]], "num_parameters": [73728, 128, 128, 128]}, {"name": "encoder4.1", "id": 139842343866832, "class_name": "Encoder(\n  (encoder): Sequential(\n    (conv): Conv2d(128, 128, kernel_size=(3, 3), stride=(1, 1), padding=(1, 1))\n    (batch_norm): BatchNorm2d(128, eps=1e-05, momentum=0.1, affine=True, track_running_stats=True)\n    (actv): ReLU()\n  )\n)", "parameters": [["encoder.conv.weight", [128, 128, 3, 3]], ["encoder.conv.bias", [128]], ["encoder.batch_norm.weight", [128]], ["encoder.batch_norm.bias", [128]]], "output_shape": [[8, 128, 32, 32]], "num_parameters": [147456, 128, 128, 128]}, {"name": "encoder5.0", "id": 139842343867168, "class_name": "Encoder(\n  (encoder): Sequential(\n    (conv): Conv2d(128, 256, kernel_size=(3, 3), stride=(2, 2), padding=(1, 1))\n    (batch_norm): BatchNorm2d(256, eps=1e-05, momentum=0.1, affine=True, track_running_stats=True)\n    (actv): ReLU()\n  )\n)", "parameters": [["encoder.conv.weight", [256, 128, 3, 3]], ["encoder.conv.bias", [256]], ["encoder.batch_norm.weight", [256]], ["encoder.batch_norm.bias", [256]]], "output_shape": [[8, 256, 16, 16]], "num_parameters": [294912, 256, 256, 256]}, {"name": "encoder5.1", "id": 139842343867560, "class_name": "Encoder(\n  (encoder): Sequential(\n    (conv): Conv2d(256, 256, kernel_size=(3, 3), stride=(1, 1), padding=(1, 1))\n    (batch_norm): BatchNorm2d(256, eps=1e-05, momentum=0.1, affine=True, track_running_stats=True)\n    (actv): ReLU()\n  )\n)", "parameters": [["encoder.conv.weight", [256, 256, 3, 3]], ["encoder.conv.bias", [256]], ["encoder.batch_norm.weight", [256]], ["encoder.batch_norm.bias", [256]]], "output_shape": [[8, 256, 16, 16]], "num_parameters": [589824, 256, 256, 256]}, {"name": "encoder6.0", "id": 139842343867896, "class_name": "Encoder(\n  (encoder): Sequential(\n    (conv): Conv2d(256, 256, kernel_size=(3, 3), stride=(2, 2), padding=(1, 1))\n    (batch_norm): BatchNorm2d(256, eps=1e-05, momentum=0.1, affine=True, track_running_stats=True)\n    (actv): ReLU()\n  )\n)", "parameters": [["encoder.conv.weight", [256, 256, 3, 3]], ["encoder.conv.bias", [256]], ["encoder.batch_norm.weight", [256]], ["encoder.batch_norm.bias", [256]]], "output_shape": [[8, 256, 8, 8]], "num_parameters": [589824, 256, 256, 256]}, {"name": "encoder6.1", "id": 139842343868288, "class_name": "Encoder(\n  (encoder): Sequential(\n    (conv): Conv2d(256, 256, kernel_size=(3, 3), stride=(1, 1), padding=(1, 1))\n    (batch_norm): BatchNorm2d(256, eps=1e-05, momentum=0.1, affine=True, track_running_stats=True)\n    (actv): ReLU()\n  )\n)", "parameters": [["encoder.conv.weight", [256, 256, 3, 3]], ["encoder.conv.bias", [256]], ["encoder.batch_norm.weight", [256]], ["encoder.batch_norm.bias", [256]]], "output_shape": [[8, 256, 8, 8]], "num_parameters": [589824, 256, 256, 256]}], "edges": []}